train.py --dataset iwslt/en-de --save_to models/var/t1_residual_share_klanneal --mode lstmvar --temperature 1 --residual_var 1 --sharelstm 1 --anneal_kl 9000
SRC Vocab Size: 39553, TRG Vocab Size: 39553
Building Model
sharelstm: 1
Model(
  (encoder): Encoder(
    (layers): ModuleList(
      (0): EncoderLayer(
        (self_attn): MultiHeadedAttention(
          (linears): ModuleList(
            (0): Linear(in_features=278, out_features=278, bias=True)
            (1): Linear(in_features=278, out_features=278, bias=True)
            (2): Linear(in_features=278, out_features=278, bias=True)
            (3): Linear(in_features=278, out_features=278, bias=True)
          )
          (dropout): Dropout(p=0.1)
        )
        (feed_forward): PositionwiseFeedForward(
          (w_1): Linear(in_features=278, out_features=507, bias=True)
          (w_2): Linear(in_features=507, out_features=278, bias=True)
          (dropout): Dropout(p=0.1)
        )
        (sublayer): ModuleList(
          (0): SublayerConnection(
            (norm): LayerNorm()
            (dropout): Dropout(p=0.1)
          )
          (1): SublayerConnection(
            (norm): LayerNorm()
            (dropout): Dropout(p=0.1)
          )
        )
      )
      (1): EncoderLayer(
        (self_attn): MultiHeadedAttention(
          (linears): ModuleList(
            (0): Linear(in_features=278, out_features=278, bias=True)
            (1): Linear(in_features=278, out_features=278, bias=True)
            (2): Linear(in_features=278, out_features=278, bias=True)
            (3): Linear(in_features=278, out_features=278, bias=True)
          )
          (dropout): Dropout(p=0.1)
        )
        (feed_forward): PositionwiseFeedForward(
          (w_1): Linear(in_features=278, out_features=507, bias=True)
          (w_2): Linear(in_features=507, out_features=278, bias=True)
          (dropout): Dropout(p=0.1)
        )
        (sublayer): ModuleList(
          (0): SublayerConnection(
            (norm): LayerNorm()
            (dropout): Dropout(p=0.1)
          )
          (1): SublayerConnection(
            (norm): LayerNorm()
            (dropout): Dropout(p=0.1)
          )
        )
      )
      (2): EncoderLayer(
        (self_attn): MultiHeadedAttention(
          (linears): ModuleList(
            (0): Linear(in_features=278, out_features=278, bias=True)
            (1): Linear(in_features=278, out_features=278, bias=True)
            (2): Linear(in_features=278, out_features=278, bias=True)
            (3): Linear(in_features=278, out_features=278, bias=True)
          )
          (dropout): Dropout(p=0.1)
        )
        (feed_forward): PositionwiseFeedForward(
          (w_1): Linear(in_features=278, out_features=507, bias=True)
          (w_2): Linear(in_features=507, out_features=278, bias=True)
          (dropout): Dropout(p=0.1)
        )
        (sublayer): ModuleList(
          (0): SublayerConnection(
            (norm): LayerNorm()
            (dropout): Dropout(p=0.1)
          )
          (1): SublayerConnection(
            (norm): LayerNorm()
            (dropout): Dropout(p=0.1)
          )
        )
      )
      (3): EncoderLayer(
        (self_attn): MultiHeadedAttention(
          (linears): ModuleList(
            (0): Linear(in_features=278, out_features=278, bias=True)
            (1): Linear(in_features=278, out_features=278, bias=True)
            (2): Linear(in_features=278, out_features=278, bias=True)
            (3): Linear(in_features=278, out_features=278, bias=True)
          )
          (dropout): Dropout(p=0.1)
        )
        (feed_forward): PositionwiseFeedForward(
          (w_1): Linear(in_features=278, out_features=507, bias=True)
          (w_2): Linear(in_features=507, out_features=278, bias=True)
          (dropout): Dropout(p=0.1)
        )
        (sublayer): ModuleList(
          (0): SublayerConnection(
            (norm): LayerNorm()
            (dropout): Dropout(p=0.1)
          )
          (1): SublayerConnection(
            (norm): LayerNorm()
            (dropout): Dropout(p=0.1)
          )
        )
      )
      (4): EncoderLayer(
        (self_attn): MultiHeadedAttention(
          (linears): ModuleList(
            (0): Linear(in_features=278, out_features=278, bias=True)
            (1): Linear(in_features=278, out_features=278, bias=True)
            (2): Linear(in_features=278, out_features=278, bias=True)
            (3): Linear(in_features=278, out_features=278, bias=True)
          )
          (dropout): Dropout(p=0.1)
        )
        (feed_forward): PositionwiseFeedForward(
          (w_1): Linear(in_features=278, out_features=507, bias=True)
          (w_2): Linear(in_features=507, out_features=278, bias=True)
          (dropout): Dropout(p=0.1)
        )
        (sublayer): ModuleList(
          (0): SublayerConnection(
            (norm): LayerNorm()
            (dropout): Dropout(p=0.1)
          )
          (1): SublayerConnection(
            (norm): LayerNorm()
            (dropout): Dropout(p=0.1)
          )
        )
      )
    )
    (norm): LayerNorm()
  )
  (decoder): Decoder(
    (layers): ModuleList(
      (0): DecoderLayer(
        (self_attn): MultiHeadedAttention(
          (linears): ModuleList(
            (0): Linear(in_features=278, out_features=278, bias=True)
            (1): Linear(in_features=278, out_features=278, bias=True)
            (2): Linear(in_features=278, out_features=278, bias=True)
            (3): Linear(in_features=278, out_features=278, bias=True)
          )
          (dropout): Dropout(p=0.1)
        )
        (src_attn): MultiHeadedAttention(
          (linears): ModuleList(
            (0): Linear(in_features=278, out_features=278, bias=True)
            (1): Linear(in_features=278, out_features=278, bias=True)
            (2): Linear(in_features=278, out_features=278, bias=True)
            (3): Linear(in_features=278, out_features=278, bias=True)
          )
          (dropout): Dropout(p=0.1)
        )
        (feed_forward): PositionwiseFeedForward(
          (w_1): Linear(in_features=278, out_features=507, bias=True)
          (w_2): Linear(in_features=507, out_features=278, bias=True)
          (dropout): Dropout(p=0.1)
        )
        (sublayer): ModuleList(
          (0): SublayerConnection(
            (norm): LayerNorm()
            (dropout): Dropout(p=0.1)
          )
          (1): SublayerConnection(
            (norm): LayerNorm()
            (dropout): Dropout(p=0.1)
          )
          (2): SublayerConnection(
            (norm): LayerNorm()
            (dropout): Dropout(p=0.1)
          )
        )
      )
      (1): DecoderLayer(
        (self_attn): MultiHeadedAttention(
          (linears): ModuleList(
            (0): Linear(in_features=278, out_features=278, bias=True)
            (1): Linear(in_features=278, out_features=278, bias=True)
            (2): Linear(in_features=278, out_features=278, bias=True)
            (3): Linear(in_features=278, out_features=278, bias=True)
          )
          (dropout): Dropout(p=0.1)
        )
        (src_attn): MultiHeadedAttention(
          (linears): ModuleList(
            (0): Linear(in_features=278, out_features=278, bias=True)
            (1): Linear(in_features=278, out_features=278, bias=True)
            (2): Linear(in_features=278, out_features=278, bias=True)
            (3): Linear(in_features=278, out_features=278, bias=True)
          )
          (dropout): Dropout(p=0.1)
        )
        (feed_forward): PositionwiseFeedForward(
          (w_1): Linear(in_features=278, out_features=507, bias=True)
          (w_2): Linear(in_features=507, out_features=278, bias=True)
          (dropout): Dropout(p=0.1)
        )
        (sublayer): ModuleList(
          (0): SublayerConnection(
            (norm): LayerNorm()
            (dropout): Dropout(p=0.1)
          )
          (1): SublayerConnection(
            (norm): LayerNorm()
            (dropout): Dropout(p=0.1)
          )
          (2): SublayerConnection(
            (norm): LayerNorm()
            (dropout): Dropout(p=0.1)
          )
        )
      )
      (2): DecoderLayer(
        (self_attn): MultiHeadedAttention(
          (linears): ModuleList(
            (0): Linear(in_features=278, out_features=278, bias=True)
            (1): Linear(in_features=278, out_features=278, bias=True)
            (2): Linear(in_features=278, out_features=278, bias=True)
            (3): Linear(in_features=278, out_features=278, bias=True)
          )
          (dropout): Dropout(p=0.1)
        )
        (src_attn): MultiHeadedAttention(
          (linears): ModuleList(
            (0): Linear(in_features=278, out_features=278, bias=True)
            (1): Linear(in_features=278, out_features=278, bias=True)
            (2): Linear(in_features=278, out_features=278, bias=True)
            (3): Linear(in_features=278, out_features=278, bias=True)
          )
          (dropout): Dropout(p=0.1)
        )
        (feed_forward): PositionwiseFeedForward(
          (w_1): Linear(in_features=278, out_features=507, bias=True)
          (w_2): Linear(in_features=507, out_features=278, bias=True)
          (dropout): Dropout(p=0.1)
        )
        (sublayer): ModuleList(
          (0): SublayerConnection(
            (norm): LayerNorm()
            (dropout): Dropout(p=0.1)
          )
          (1): SublayerConnection(
            (norm): LayerNorm()
            (dropout): Dropout(p=0.1)
          )
          (2): SublayerConnection(
            (norm): LayerNorm()
            (dropout): Dropout(p=0.1)
          )
        )
      )
      (3): DecoderLayer(
        (self_attn): MultiHeadedAttention(
          (linears): ModuleList(
            (0): Linear(in_features=278, out_features=278, bias=True)
            (1): Linear(in_features=278, out_features=278, bias=True)
            (2): Linear(in_features=278, out_features=278, bias=True)
            (3): Linear(in_features=278, out_features=278, bias=True)
          )
          (dropout): Dropout(p=0.1)
        )
        (src_attn): MultiHeadedAttention(
          (linears): ModuleList(
            (0): Linear(in_features=278, out_features=278, bias=True)
            (1): Linear(in_features=278, out_features=278, bias=True)
            (2): Linear(in_features=278, out_features=278, bias=True)
            (3): Linear(in_features=278, out_features=278, bias=True)
          )
          (dropout): Dropout(p=0.1)
        )
        (feed_forward): PositionwiseFeedForward(
          (w_1): Linear(in_features=278, out_features=507, bias=True)
          (w_2): Linear(in_features=507, out_features=278, bias=True)
          (dropout): Dropout(p=0.1)
        )
        (sublayer): ModuleList(
          (0): SublayerConnection(
            (norm): LayerNorm()
            (dropout): Dropout(p=0.1)
          )
          (1): SublayerConnection(
            (norm): LayerNorm()
            (dropout): Dropout(p=0.1)
          )
          (2): SublayerConnection(
            (norm): LayerNorm()
            (dropout): Dropout(p=0.1)
          )
        )
      )
      (4): DecoderLayer(
        (self_attn): MultiHeadedAttention(
          (linears): ModuleList(
            (0): Linear(in_features=278, out_features=278, bias=True)
            (1): Linear(in_features=278, out_features=278, bias=True)
            (2): Linear(in_features=278, out_features=278, bias=True)
            (3): Linear(in_features=278, out_features=278, bias=True)
          )
          (dropout): Dropout(p=0.1)
        )
        (src_attn): MultiHeadedAttention(
          (linears): ModuleList(
            (0): Linear(in_features=278, out_features=278, bias=True)
            (1): Linear(in_features=278, out_features=278, bias=True)
            (2): Linear(in_features=278, out_features=278, bias=True)
            (3): Linear(in_features=278, out_features=278, bias=True)
          )
          (dropout): Dropout(p=0.1)
        )
        (feed_forward): PositionwiseFeedForward(
          (w_1): Linear(in_features=278, out_features=507, bias=True)
          (w_2): Linear(in_features=507, out_features=278, bias=True)
          (dropout): Dropout(p=0.1)
        )
        (sublayer): ModuleList(
          (0): SublayerConnection(
            (norm): LayerNorm()
            (dropout): Dropout(p=0.1)
          )
          (1): SublayerConnection(
            (norm): LayerNorm()
            (dropout): Dropout(p=0.1)
          )
          (2): SublayerConnection(
            (norm): LayerNorm()
            (dropout): Dropout(p=0.1)
          )
        )
      )
    )
    (norm): LayerNorm()
  )
  (src_embed): Sequential(
    (0): Embeddings(
      (lut): Embedding(39553, 278)
    )
    (1): PositionalEncoding(
      (dropout): Dropout(p=0.1)
    )
  )
  (trg_embed): Sequential(
    (0): Embeddings(
      (lut): Embedding(39553, 278)
    )
    (1): PositionalEncoding(
      (dropout): Dropout(p=0.1)
    )
  )
  (inference_network): LSTMInferenceNetwork(
    (layers_src): ModuleList(
      (0): LSTM(278, 278, num_layers=2, dropout=0.1, bidirectional=True)
      (1): LSTM(278, 278, num_layers=2, dropout=0.1, bidirectional=True)
      (2): LSTM(278, 278, num_layers=2, dropout=0.1, bidirectional=True)
      (3): LSTM(278, 278, num_layers=2, dropout=0.1, bidirectional=True)
      (4): LSTM(278, 278, num_layers=2, dropout=0.1, bidirectional=True)
    )
    (layers_trg): ModuleList(
      (0): LSTM(278, 278, num_layers=2, dropout=0.1, bidirectional=True)
      (1): LSTM(278, 278, num_layers=2, dropout=0.1, bidirectional=True)
      (2): LSTM(278, 278, num_layers=2, dropout=0.1, bidirectional=True)
      (3): LSTM(278, 278, num_layers=2, dropout=0.1, bidirectional=True)
      (4): LSTM(278, 278, num_layers=2, dropout=0.1, bidirectional=True)
    )
    (Ws): ModuleList(
      (0): Linear(in_features=556, out_features=556, bias=False)
      (1): Linear(in_features=556, out_features=556, bias=False)
      (2): Linear(in_features=556, out_features=556, bias=False)
      (3): Linear(in_features=556, out_features=556, bias=False)
      (4): Linear(in_features=556, out_features=556, bias=False)
    )
  )
  (generator): Generator(
    (proj): Linear(in_features=278, out_features=39553, bias=True)
  )
)/root/anaconda3/envs/pytorch/lib/python3.7/site-packages/torch/nn/_reduction.py:49: UserWarning: size_average and reduce args will be deprecated, please use reduction='sum' instead.
  warnings.warn(warning.format(ret))

Namespace(accum_grad=1, anneal_kl=9000, anneal_temperature=0, batch_size=3200, dataset='iwslt/en-de', dependent_posterior=1, direction='ende', epochs=50, fix_model_steps=-1, learning_rate=0.001, max_src_len=150, max_trg_len=150, mode='lstmvar', residual_var=1, save_to='models/var/t1_residual_share_klanneal', share_decoder_embeddings=1, share_word_embeddings=0, sharelstm=1, temperature=1.0, train_from='')
…
