train.py --dataset iwslt/en-de --save_to models/singlehead/hard_t05 --mode hard --temperature 0.5 --heads 1 --selftemperature 1 --selfmode soft
SRC Vocab Size: 39553, TRG Vocab Size: 39553
Building Model
Model(
  (encoder): Encoder(
    (layers): ModuleList(
      (0): EncoderLayer(
        (self_attn): MultiHeadedAttention(
          (linears): ModuleList(
            (0): Linear(in_features=278, out_features=278, bias=True)
            (1): Linear(in_features=278, out_features=278, bias=True)
            (2): Linear(in_features=278, out_features=278, bias=True)
            (3): Linear(in_features=278, out_features=278, bias=True)
          )
          (dropout): Dropout(p=0.1)
        )
        (feed_forward): PositionwiseFeedForward(
          (w_1): Linear(in_features=278, out_features=507, bias=True)
          (w_2): Linear(in_features=507, out_features=278, bias=True)
          (dropout): Dropout(p=0.1)
        )
        (sublayer): ModuleList(
          (0): SublayerConnection(
            (norm): LayerNorm()
            (dropout): Dropout(p=0.1)
          )
          (1): SublayerConnection(
            (norm): LayerNorm()
            (dropout): Dropout(p=0.1)
          )
        )
      )
      (1): EncoderLayer(
        (self_attn): MultiHeadedAttention(
          (linears): ModuleList(
            (0): Linear(in_features=278, out_features=278, bias=True)
            (1): Linear(in_features=278, out_features=278, bias=True)
            (2): Linear(in_features=278, out_features=278, bias=True)
            (3): Linear(in_features=278, out_features=278, bias=True)
          )
          (dropout): Dropout(p=0.1)
        )
        (feed_forward): PositionwiseFeedForward(
          (w_1): Linear(in_features=278, out_features=507, bias=True)
          (w_2): Linear(in_features=507, out_features=278, bias=True)
          (dropout): Dropout(p=0.1)
        )
        (sublayer): ModuleList(
          (0): SublayerConnection(
            (norm): LayerNorm()
            (dropout): Dropout(p=0.1)
          )
          (1): SublayerConnection(
            (norm): LayerNorm()
            (dropout): Dropout(p=0.1)
          )
        )
      )
      (2): EncoderLayer(
        (self_attn): MultiHeadedAttention(
          (linears): ModuleList(
            (0): Linear(in_features=278, out_features=278, bias=True)
            (1): Linear(in_features=278, out_features=278, bias=True)
            (2): Linear(in_features=278, out_features=278, bias=True)
            (3): Linear(in_features=278, out_features=278, bias=True)
          )
          (dropout): Dropout(p=0.1)
        )
        (feed_forward): PositionwiseFeedForward(
          (w_1): Linear(in_features=278, out_features=507, bias=True)
          (w_2): Linear(in_features=507, out_features=278, bias=True)
          (dropout): Dropout(p=0.1)
        )
        (sublayer): ModuleList(
          (0): SublayerConnection(
            (norm): LayerNorm()
            (dropout): Dropout(p=0.1)
          )
          (1): SublayerConnection(
            (norm): LayerNorm()
            (dropout): Dropout(p=0.1)
          )
        )
      )
      (3): EncoderLayer(
        (self_attn): MultiHeadedAttention(
          (linears): ModuleList(
            (0): Linear(in_features=278, out_features=278, bias=True)
            (1): Linear(in_features=278, out_features=278, bias=True)
            (2): Linear(in_features=278, out_features=278, bias=True)
            (3): Linear(in_features=278, out_features=278, bias=True)
          )
          (dropout): Dropout(p=0.1)
        )
        (feed_forward): PositionwiseFeedForward(
          (w_1): Linear(in_features=278, out_features=507, bias=True)
          (w_2): Linear(in_features=507, out_features=278, bias=True)
          (dropout): Dropout(p=0.1)
        )
        (sublayer): ModuleList(
          (0): SublayerConnection(
            (norm): LayerNorm()
            (dropout): Dropout(p=0.1)
          )
          (1): SublayerConnection(
            (norm): LayerNorm()
            (dropout): Dropout(p=0.1)
          )
        )
      )
      (4): EncoderLayer(
        (self_attn): MultiHeadedAttention(
          (linears): ModuleList(
            (0): Linear(in_features=278, out_features=278, bias=True)
            (1): Linear(in_features=278, out_features=278, bias=True)
            (2): Linear(in_features=278, out_features=278, bias=True)
            (3): Linear(in_features=278, out_features=278, bias=True)
          )
          (dropout): Dropout(p=0.1)
        )
        (feed_forward): PositionwiseFeedForward(
          (w_1): Linear(in_features=278, out_features=507, bias=True)
          (w_2): Linear(in_features=507, out_features=278, bias=True)
          (dropout): Dropout(p=0.1)
        )
        (sublayer): ModuleList(
          (0): SublayerConnection(
            (norm): LayerNorm()
            (dropout): Dropout(p=0.1)
          )
          (1): SublayerConnection(
            (norm): LayerNorm()
            (dropout): Dropout(p=0.1)
          )
        )
      )
    )
    (norm): LayerNorm()
  )
  (decoder): Decoder(
    (layers): ModuleList(
      (0): DecoderLayer(
        (self_attn): MultiHeadedAttention(
          (linears): ModuleList(
            (0): Linear(in_features=278, out_features=278, bias=True)
            (1): Linear(in_features=278, out_features=278, bias=True)
            (2): Linear(in_features=278, out_features=278, bias=True)
            (3): Linear(in_features=278, out_features=278, bias=True)
          )
          (dropout): Dropout(p=0.1)
        )
        (src_attn): MultiHeadedAttention(
          (linears): ModuleList(
            (0): Linear(in_features=278, out_features=278, bias=True)
            (1): Linear(in_features=278, out_features=278, bias=True)
            (2): Linear(in_features=278, out_features=278, bias=True)
            (3): Linear(in_features=278, out_features=278, bias=True)
          )
          (dropout): Dropout(p=0.1)
        )
        (feed_forward): PositionwiseFeedForward(
          (w_1): Linear(in_features=278, out_features=507, bias=True)
          (w_2): Linear(in_features=507, out_features=278, bias=True)
          (dropout): Dropout(p=0.1)
        )
        (sublayer): ModuleList(
          (0): SublayerConnection(
            (norm): LayerNorm()
            (dropout): Dropout(p=0.1)
          )
          (1): SublayerConnection(
            (norm): LayerNorm()
            (dropout): Dropout(p=0.1)
          )
          (2): SublayerConnection(
            (norm): LayerNorm()
            (dropout): Dropout(p=0.1)
          )
        )
      )
      (1): DecoderLayer(
        (self_attn): MultiHeadedAttention(
          (linears): ModuleList(
            (0): Linear(in_features=278, out_features=278, bias=True)
            (1): Linear(in_features=278, out_features=278, bias=True)
            (2): Linear(in_features=278, out_features=278, bias=True)
            (3): Linear(in_features=278, out_features=278, bias=True)
          )
          (dropout): Dropout(p=0.1)
        )
        (src_attn): MultiHeadedAttention(
          (linears): ModuleList(
            (0): Linear(in_features=278, out_features=278, bias=True)
            (1): Linear(in_features=278, out_features=278, bias=True)
            (2): Linear(in_features=278, out_features=278, bias=True)
            (3): Linear(in_features=278, out_features=278, bias=True)
          )
          (dropout): Dropout(p=0.1)
        )
        (feed_forward): PositionwiseFeedForward(
          (w_1): Linear(in_features=278, out_features=507, bias=True)
          (w_2): Linear(in_features=507, out_features=278, bias=True)
          (dropout): Dropout(p=0.1)
        )
        (sublayer): ModuleList(
          (0): SublayerConnection(
            (norm): LayerNorm()
            (dropout): Dropout(p=0.1)
          )
          (1): SublayerConnection(
            (norm): LayerNorm()
            (dropout): Dropout(p=0.1)
          )
          (2): SublayerConnection(
            (norm): LayerNorm()
            (dropout): Dropout(p=0.1)
          )
        )
      )
      (2): DecoderLayer(
        (self_attn): MultiHeadedAttention(
          (linears): ModuleList(
            (0): Linear(in_features=278, out_features=278, bias=True)
            (1): Linear(in_features=278, out_features=278, bias=True)
            (2): Linear(in_features=278, out_features=278, bias=True)
            (3): Linear(in_features=278, out_features=278, bias=True)
          )
          (dropout): Dropout(p=0.1)
        )
        (src_attn): MultiHeadedAttention(
          (linears): ModuleList(
            (0): Linear(in_features=278, out_features=278, bias=True)
            (1): Linear(in_features=278, out_features=278, bias=True)
            (2): Linear(in_features=278, out_features=278, bias=True)
            (3): Linear(in_features=278, out_features=278, bias=True)
          )
          (dropout): Dropout(p=0.1)
        )
        (feed_forward): PositionwiseFeedForward(
          (w_1): Linear(in_features=278, out_features=507, bias=True)
          (w_2): Linear(in_features=507, out_features=278, bias=True)
          (dropout): Dropout(p=0.1)
        )
        (sublayer): ModuleList(
          (0): SublayerConnection(
            (norm): LayerNorm()
            (dropout): Dropout(p=0.1)
          )
          (1): SublayerConnection(
            (norm): LayerNorm()
            (dropout): Dropout(p=0.1)
          )
          (2): SublayerConnection(
            (norm): LayerNorm()
            (dropout): Dropout(p=0.1)
          )
        )
      )
      (3): DecoderLayer(
        (self_attn): MultiHeadedAttention(
          (linears): ModuleList(
            (0): Linear(in_features=278, out_features=278, bias=True)
            (1): Linear(in_features=278, out_features=278, bias=True)
            (2): Linear(in_features=278, out_features=278, bias=True)
            (3): Linear(in_features=278, out_features=278, bias=True)
          )
          (dropout): Dropout(p=0.1)
        )
        (src_attn): MultiHeadedAttention(
          (linears): ModuleList(
            (0): Linear(in_features=278, out_features=278, bias=True)
            (1): Linear(in_features=278, out_features=278, bias=True)
            (2): Linear(in_features=278, out_features=278, bias=True)
            (3): Linear(in_features=278, out_features=278, bias=True)
          )
          (dropout): Dropout(p=0.1)
        )
        (feed_forward): PositionwiseFeedForward(
          (w_1): Linear(in_features=278, out_features=507, bias=True)
          (w_2): Linear(in_features=507, out_features=278, bias=True)
          (dropout): Dropout(p=0.1)
        )
        (sublayer): ModuleList(
          (0): SublayerConnection(
            (norm): LayerNorm()
            (dropout): Dropout(p=0.1)
          )
          (1): SublayerConnection(
            (norm): LayerNorm()
            (dropout): Dropout(p=0.1)
          )
          (2): SublayerConnection(
            (norm): LayerNorm()
            (dropout): Dropout(p=0.1)
          )
        )
      )
      (4): DecoderLayer(
        (self_attn): MultiHeadedAttention(
          (linears): ModuleList(
            (0): Linear(in_features=278, out_features=278, bias=True)
            (1): Linear(in_features=278, out_features=278, bias=True)
            (2): Linear(in_features=278, out_features=278, bias=True)
            (3): Linear(in_features=278, out_features=278, bias=True)
          )
          (dropout): Dropout(p=0.1)
        )
        (src_attn): MultiHeadedAttention(
          (linears): ModuleList(
            (0): Linear(in_features=278, out_features=278, bias=True)
            (1): Linear(in_features=278, out_features=278, bias=True)
            (2): Linear(in_features=278, out_features=278, bias=True)
            (3): Linear(in_features=278, out_features=278, bias=True)
          )
          (dropout): Dropout(p=0.1)
        )
        (feed_forward): PositionwiseFeedForward(
          (w_1): Linear(in_features=278, out_features=507, bias=True)
          (w_2): Linear(in_features=507, out_features=278, bias=True)
          (dropout): Dropout(p=0.1)
        )
        (sublayer): ModuleList(
          (0): SublayerConnection(
            (norm): LayerNorm()
            (dropout): Dropout(p=0.1)
          )
          (1): SublayerConnection(
            (norm): LayerNorm()
            (dropout): Dropout(p=0.1)
          )
          (2): SublayerConnection(
            (norm): LayerNorm()
            (dropout): Dropout(p=0.1)
          )
        )
      )
    )
    (norm): LayerNorm()
  )
  (src_embed): Sequential(
    (0): Embeddings(
      (lut): Embedding(39553, 278)
    )
    (1): PositionalEncoding(
      (dropout): Dropout(p=0.1)
    )
  )
  (trg_embed): Sequential(
    (0): Embeddings(
      (lut): Embedding(39553, 278)
    )
    (1): PositionalEncoding(
      (dropout): Dropout(p=0.1)
    )
  )
  (inference_network): InferenceNetwork(
    (layers): ModuleList(
      (0): DecoderLayer(
        (self_attn): MultiHeadedAttention(
          (linears): ModuleList(
            (0): Linear(in_features=278, out_features=278, bias=True)
            (1): Linear(in_features=278, out_features=278, bias=True)
            (2): Linear(in_features=278, out_features=278, bias=True)
            (3): Linear(in_features=278, out_features=278, bias=True)
          )
          (dropout): Dropout(p=0.1)
        )
        (src_attn): MultiHeadedAttention(
          (linears): ModuleList(
            (0): Linear(in_features=278, out_features=278, bias=True)
            (1): Linear(in_features=278, out_features=278, bias=True)
            (2): Linear(in_features=278, out_features=278, bias=True)
            (3): Linear(in_features=278, out_features=278, bias=True)
          )
          (dropout): Dropout(p=0.1)
        )
        (feed_forward): PositionwiseFeedForward(
          (w_1): Linear(in_features=278, out_features=507, bias=True)
          (w_2): Linear(in_features=507, out_features=278, bias=True)
          (dropout): Dropout(p=0.1)
        )
        (sublayer): ModuleList(
          (0): SublayerConnection(
            (norm): LayerNorm()
            (dropout): Dropout(p=0.1)
          )
          (1): SublayerConnection(
            (norm): LayerNorm()
            (dropout): Dropout(p=0.1)
          )
          (2): SublayerConnection(
            (norm): LayerNorm()
            (dropout): Dropout(p=0.1)
          )
        )
      )
      (1): DecoderLayer(
        (self_attn): MultiHeadedAttention(
          (linears): ModuleList(
            (0): Linear(in_features=278, out_features=278, bias=True)
            (1): Linear(in_features=278, out_features=278, bias=True)
            (2): Linear(in_features=278, out_features=278, bias=True)
            (3): Linear(in_features=278, out_features=278, bias=True)
          )
          (dropout): Dropout(p=0.1)
        )
        (src_attn): MultiHeadedAttention(
          (linears): ModuleList(
            (0): Linear(in_features=278, out_features=278, bias=True)
            (1): Linear(in_features=278, out_features=278, bias=True)
            (2): Linear(in_features=278, out_features=278, bias=True)
            (3): Linear(in_features=278, out_features=278, bias=True)
          )
          (dropout): Dropout(p=0.1)
        )
        (feed_forward): PositionwiseFeedForward(
          (w_1): Linear(in_features=278, out_features=507, bias=True)
          (w_2): Linear(in_features=507, out_features=278, bias=True)
          (dropout): Dropout(p=0.1)
        )
        (sublayer): ModuleList(
          (0): SublayerConnection(
            (norm): LayerNorm()
            (dropout): Dropout(p=0.1)
          )
          (1): SublayerConnection(
            (norm): LayerNorm()
            (dropout): Dropout(p=0.1)
          )
          (2): SublayerConnection(
            (norm): LayerNorm()
            (dropout): Dropout(p=0.1)
          )
        )
      )
      (2): DecoderLayer(
        (self_attn): MultiHeadedAttention(
          (linears): ModuleList(
            (0): Linear(in_features=278, out_features=278, bias=True)
            (1): Linear(in_features=278, out_features=278, bias=True)
            (2): Linear(in_features=278, out_features=278, bias=True)
            (3): Linear(in_features=278, out_features=278, bias=True)
          )
          (dropout): Dropout(p=0.1)
        )
        (src_attn): MultiHeadedAttention(
          (linears): ModuleList(
            (0): Linear(in_features=278, out_features=278, bias=True)
            (1): Linear(in_features=278, out_features=278, bias=True)
            (2): Linear(in_features=278, out_features=278, bias=True)
            (3): Linear(in_features=278, out_features=278, bias=True)
          )
          (dropout): Dropout(p=0.1)
        )
        (feed_forward): PositionwiseFeedForward(
          (w_1): Linear(in_features=278, out_features=507, bias=True)
          (w_2): Linear(in_features=507, out_features=278, bias=True)
          (dropout): Dropout(p=0.1)
        )
        (sublayer): ModuleList(
          (0): SublayerConnection(
            (norm): LayerNorm()
            (dropout): Dropout(p=0.1)
          )
          (1): SublayerConnection(
            (norm): LayerNorm()
            (dropout): Dropout(p=0.1)
          )
          (2): SublayerConnection(
            (norm): LayerNorm()
            (dropout): Dropout(p=0.1)
          )
        )
      )
      (3): DecoderLayer(
        (self_attn): MultiHeadedAttention(
          (linears): ModuleList(
            (0): Linear(in_features=278, out_features=278, bias=True)
            (1): Linear(in_features=278, out_features=278, bias=True)
            (2): Linear(in_features=278, out_features=278, bias=True)
            (3): Linear(in_features=278, out_features=278, bias=True)
          )
          (dropout): Dropout(p=0.1)
        )
        (src_attn): MultiHeadedAttention(
          (linears): ModuleList(
            (0): Linear(in_features=278, out_features=278, bias=True)
            (1): Linear(in_features=278, out_features=278, bias=True)
            (2): Linear(in_features=278, out_features=278, bias=True)
            (3): Linear(in_features=278, out_features=278, bias=True)
          )
          (dropout): Dropout(p=0.1)
        )
        (feed_forward): PositionwiseFeedForward(
          (w_1): Linear(in_features=278, out_features=507, bias=True)
          (w_2): Linear(in_features=507, out_features=278, bias=True)
          (dropout): Dropout(p=0.1)
        )
        (sublayer): ModuleList(
          (0): SublayerConnection(
            (norm): LayerNorm()
            (dropout): Dropout(p=0.1)
          )
          (1): SublayerConnection(
            (norm): LayerNorm()
            (dropout): Dropout(p=0.1)
          )
          (2): SublayerConnection(
            (norm): LayerNorm()
            (dropout): Dropout(p=0.1)
          )
        )
      )
      (4): DecoderLayer(
        (self_attn): MultiHeadedAttention(
          (linears): ModuleList(
            (0): Linear(in_features=278, out_features=278, bias=True)
            (1): Linear(in_features=278, out_features=278, bias=True)
            (2): Linear(in_features=278, out_features=278, bias=True)
            (3): Linear(in_features=278, out_features=278, bias=True)
          )
          (dropout): Dropout(p=0.1)
        )
        (src_attn): MultiHeadedAttention(
          (linears): ModuleList(
            (0): Linear(in_features=278, out_features=278, bias=True)
            (1): Linear(in_features=278, out_features=278, bias=True)
            (2): Linear(in_features=278, out_features=278, bias=True)
            (3): Linear(in_features=278, out_features=278, bias=True)
          )
          (dropout): Dropout(p=0.1)
        )
        (feed_forward): PositionwiseFeedForward(
          (w_1): Linear(in_features=278, out_features=507, bias=True)
          (w_2): Linear(in_features=507, out_features=278, bias=True)
          (dropout): Dropout(p=0.1)
        )
        (sublayer): ModuleList(
          (0): SublayerConnection(
            (norm): LayerNorm()
            (dropout): Dropout(p=0.1)
          )
          (1): SublayerConnection(
            (norm): LayerNorm()
            (dropout): Dropout(p=0.1)
          )
          (2): SublayerConnection(
            (norm): LayerNorm()
            (dropout): Dropout(p=0.1)
          )
        )
      )
    )
  )
  (generator): Generator(
    (proj): Linear(in_features=278, out_features=39553, bias=True)
  )
)Unexpected end of /proc/mounts line `overlay / overlay rw,relatime,lowerdir=/raid/docker/overlay2/l/BRGDUA2HBI662QX7MPJAKAL3YT:/raid/docker/overlay2/l/BQ5UIPCQTWKCMS4GC73Q4B3AYI:/raid/docker/overlay2/l/X7HV3IJKDBUC57A7A7PD3QCPDO:/raid/docker/overlay2/l/KOKGCQVXCBDOPGO3R2ECSDK74V:/raid/docker/overlay2/l/EASY637QBL5KKMMUGCYRMOTREU:/raid/docker/overlay2/l/EK76IYFVRALHMMDTRXK3HZVEYG:/raid/docker/overlay2/l/D3C6RVSGSIRP2DHFT7QWDECMPB:/raid/docker/overlay2/l/VRJ24HDHBV2VA5KCN6V7VWEYHT:/raid/docker/overlay2/l/NBSCYFS4AVRZ5BEJ4A6ODVQWEA:/raid/docker/'
…
