train_energy.py --dataset iwslt/en-de --selfmode soft --encselfmode soft --temperature 0 --selftemperature 0 --encselftemperature 0 --encselfmode soft --save_to models/de-en/energy/01/default_5_005 --direction deen --train_from models/de-en/10/default_00.e9.pt --yx 1 --xy 0 --eta 0.05
SRC Vocab Size: 39553, TRG Vocab Size: 39553
Building Model
Model(
  (encoder_fx): Encoder(
    (layers): ModuleList(
      (0): EncoderLayer(
        (self_attn): MultiHeadedAttention(
          (linears): ModuleList(
            (0): Linear(in_features=278, out_features=278, bias=True)
            (1): Linear(in_features=278, out_features=278, bias=True)
            (2): Linear(in_features=278, out_features=278, bias=True)
            (3): Linear(in_features=278, out_features=278, bias=True)
          )
          (dropout): Dropout(p=0.1)
        )
        (feed_forward): PositionwiseFeedForward(
          (w_1): Linear(in_features=278, out_features=507, bias=True)
          (w_2): Linear(in_features=507, out_features=278, bias=True)
          (dropout): Dropout(p=0.1)
        )
        (sublayer): ModuleList(
          (0): SublayerConnection(
            (norm): LayerNorm()
            (dropout): Dropout(p=0.1)
          )
          (1): SublayerConnection(
            (norm): LayerNorm()
            (dropout): Dropout(p=0.1)
          )
        )
      )
      (1): EncoderLayer(
        (self_attn): MultiHeadedAttention(
          (linears): ModuleList(
            (0): Linear(in_features=278, out_features=278, bias=True)
            (1): Linear(in_features=278, out_features=278, bias=True)
            (2): Linear(in_features=278, out_features=278, bias=True)
            (3): Linear(in_features=278, out_features=278, bias=True)
          )
          (dropout): Dropout(p=0.1)
        )
        (feed_forward): PositionwiseFeedForward(
          (w_1): Linear(in_features=278, out_features=507, bias=True)
          (w_2): Linear(in_features=507, out_features=278, bias=True)
          (dropout): Dropout(p=0.1)
        )
        (sublayer): ModuleList(
          (0): SublayerConnection(
            (norm): LayerNorm()
            (dropout): Dropout(p=0.1)
          )
          (1): SublayerConnection(
            (norm): LayerNorm()
            (dropout): Dropout(p=0.1)
          )
        )
      )
      (2): EncoderLayer(
        (self_attn): MultiHeadedAttention(
          (linears): ModuleList(
            (0): Linear(in_features=278, out_features=278, bias=True)
            (1): Linear(in_features=278, out_features=278, bias=True)
            (2): Linear(in_features=278, out_features=278, bias=True)
            (3): Linear(in_features=278, out_features=278, bias=True)
          )
          (dropout): Dropout(p=0.1)
        )
        (feed_forward): PositionwiseFeedForward(
          (w_1): Linear(in_features=278, out_features=507, bias=True)
          (w_2): Linear(in_features=507, out_features=278, bias=True)
          (dropout): Dropout(p=0.1)
        )
        (sublayer): ModuleList(
          (0): SublayerConnection(
            (norm): LayerNorm()
            (dropout): Dropout(p=0.1)
          )
          (1): SublayerConnection(
            (norm): LayerNorm()
            (dropout): Dropout(p=0.1)
          )
        )
      )
      (3): EncoderLayer(
        (self_attn): MultiHeadedAttention(
          (linears): ModuleList(
            (0): Linear(in_features=278, out_features=278, bias=True)
            (1): Linear(in_features=278, out_features=278, bias=True)
            (2): Linear(in_features=278, out_features=278, bias=True)
            (3): Linear(in_features=278, out_features=278, bias=True)
          )
          (dropout): Dropout(p=0.1)
        )
        (feed_forward): PositionwiseFeedForward(
          (w_1): Linear(in_features=278, out_features=507, bias=True)
          (w_2): Linear(in_features=507, out_features=278, bias=True)
          (dropout): Dropout(p=0.1)
        )
        (sublayer): ModuleList(
          (0): SublayerConnection(
            (norm): LayerNorm()
            (dropout): Dropout(p=0.1)
          )
          (1): SublayerConnection(
            (norm): LayerNorm()
            (dropout): Dropout(p=0.1)
          )
        )
      )
      (4): EncoderLayer(
        (self_attn): MultiHeadedAttention(
          (linears): ModuleList(
            (0): Linear(in_features=278, out_features=278, bias=True)
            (1): Linear(in_features=278, out_features=278, bias=True)
            (2): Linear(in_features=278, out_features=278, bias=True)
            (3): Linear(in_features=278, out_features=278, bias=True)
          )
          (dropout): Dropout(p=0.1)
        )
        (feed_forward): PositionwiseFeedForward(
          (w_1): Linear(in_features=278, out_features=507, bias=True)
          (w_2): Linear(in_features=507, out_features=278, bias=True)
          (dropout): Dropout(p=0.1)
        )
        (sublayer): ModuleList(
          (0): SublayerConnection(
            (norm): LayerNorm()
            (dropout): Dropout(p=0.1)
          )
          (1): SublayerConnection(
            (norm): LayerNorm()
            (dropout): Dropout(p=0.1)
          )
        )
      )
    )
    (norm): LayerNorm()
  )
  (encoder_fy): Encoder(
    (layers): ModuleList(
      (0): EncoderLayer(
        (self_attn): MultiHeadedAttention(
          (linears): ModuleList(
            (0): Linear(in_features=278, out_features=278, bias=True)
            (1): Linear(in_features=278, out_features=278, bias=True)
            (2): Linear(in_features=278, out_features=278, bias=True)
            (3): Linear(in_features=278, out_features=278, bias=True)
          )
          (dropout): Dropout(p=0.1)
        )
        (feed_forward): PositionwiseFeedForward(
          (w_1): Linear(in_features=278, out_features=507, bias=True)
          (w_2): Linear(in_features=507, out_features=278, bias=True)
          (dropout): Dropout(p=0.1)
        )
        (sublayer): ModuleList(
          (0): SublayerConnection(
            (norm): LayerNorm()
            (dropout): Dropout(p=0.1)
          )
          (1): SublayerConnection(
            (norm): LayerNorm()
            (dropout): Dropout(p=0.1)
          )
        )
      )
      (1): EncoderLayer(
        (self_attn): MultiHeadedAttention(
          (linears): ModuleList(
            (0): Linear(in_features=278, out_features=278, bias=True)
            (1): Linear(in_features=278, out_features=278, bias=True)
            (2): Linear(in_features=278, out_features=278, bias=True)
            (3): Linear(in_features=278, out_features=278, bias=True)
          )
          (dropout): Dropout(p=0.1)
        )
        (feed_forward): PositionwiseFeedForward(
          (w_1): Linear(in_features=278, out_features=507, bias=True)
          (w_2): Linear(in_features=507, out_features=278, bias=True)
          (dropout): Dropout(p=0.1)
        )
        (sublayer): ModuleList(
          (0): SublayerConnection(
            (norm): LayerNorm()
            (dropout): Dropout(p=0.1)
          )
          (1): SublayerConnection(
            (norm): LayerNorm()
            (dropout): Dropout(p=0.1)
          )
        )
      )
      (2): EncoderLayer(
        (self_attn): MultiHeadedAttention(
          (linears): ModuleList(
            (0): Linear(in_features=278, out_features=278, bias=True)
            (1): Linear(in_features=278, out_features=278, bias=True)
            (2): Linear(in_features=278, out_features=278, bias=True)
            (3): Linear(in_features=278, out_features=278, bias=True)
          )
          (dropout): Dropout(p=0.1)
        )
        (feed_forward): PositionwiseFeedForward(
          (w_1): Linear(in_features=278, out_features=507, bias=True)
          (w_2): Linear(in_features=507, out_features=278, bias=True)
          (dropout): Dropout(p=0.1)
        )
        (sublayer): ModuleList(
          (0): SublayerConnection(
            (norm): LayerNorm()
            (dropout): Dropout(p=0.1)
          )
          (1): SublayerConnection(
            (norm): LayerNorm()
            (dropout): Dropout(p=0.1)
          )
        )
      )
      (3): EncoderLayer(
        (self_attn): MultiHeadedAttention(
          (linears): ModuleList(
            (0): Linear(in_features=278, out_features=278, bias=True)
            (1): Linear(in_features=278, out_features=278, bias=True)
            (2): Linear(in_features=278, out_features=278, bias=True)
            (3): Linear(in_features=278, out_features=278, bias=True)
          )
          (dropout): Dropout(p=0.1)
        )
        (feed_forward): PositionwiseFeedForward(
          (w_1): Linear(in_features=278, out_features=507, bias=True)
          (w_2): Linear(in_features=507, out_features=278, bias=True)
          (dropout): Dropout(p=0.1)
        )
        (sublayer): ModuleList(
          (0): SublayerConnection(
            (norm): LayerNorm()
            (dropout): Dropout(p=0.1)
          )
          (1): SublayerConnection(
            (norm): LayerNorm()
            (dropout): Dropout(p=0.1)
          )
        )
      )
      (4): EncoderLayer(
        (self_attn): MultiHeadedAttention(
          (linears): ModuleList(
            (0): Linear(in_features=278, out_features=278, bias=True)
            (1): Linear(in_features=278, out_features=278, bias=True)
            (2): Linear(in_features=278, out_features=278, bias=True)
            (3): Linear(in_features=278, out_features=278, bias=True)
          )
          (dropout): Dropout(p=0.1)
        )
        (feed_forward): PositionwiseFeedForward(
          (w_1): Linear(in_features=278, out_features=507, bias=True)
          (w_2): Linear(in_features=507, out_features=278, bias=True)
          (dropout): Dropout(p=0.1)
        )
        (sublayer): ModuleList(
          (0): SublayerConnection(
            (norm): LayerNorm()
            (dropout): Dropout(p=0.1)
          )
          (1): SublayerConnection(
            (norm): LayerNorm()
            (dropout): Dropout(p=0.1)
          )
        )
      )
    )
    (norm): LayerNorm()
  )
  (decoder_gx): Decoder(
    (layers): ModuleList(
      (0): DecoderLayer(
        (self_attn): MultiHeadedAttention(
          (linears): ModuleList(
            (0): Linear(in_features=278, out_features=278, bias=True)
            (1): Linear(in_features=278, out_features=278, bias=True)
            (2): Linear(in_features=278, out_features=278, bias=True)
            (3): Linear(in_features=278, out_features=278, bias=True)
          )
          (dropout): Dropout(p=0.1)
        )
        (src_attn): MultiHeadedAttention(
          (linears): ModuleList(
            (0): Linear(in_features=278, out_features=278, bias=True)
            (1): Linear(in_features=278, out_features=278, bias=True)
            (2): Linear(in_features=278, out_features=278, bias=True)
            (3): Linear(in_features=278, out_features=278, bias=True)
          )
          (dropout): Dropout(p=0.1)
        )
        (feed_forward): PositionwiseFeedForward(
          (w_1): Linear(in_features=278, out_features=507, bias=True)
          (w_2): Linear(in_features=507, out_features=278, bias=True)
          (dropout): Dropout(p=0.1)
        )
        (sublayer): ModuleList(
          (0): SublayerConnection(
            (norm): LayerNorm()
            (dropout): Dropout(p=0.1)
          )
          (1): SublayerConnection(
            (norm): LayerNorm()
            (dropout): Dropout(p=0.1)
          )
          (2): SublayerConnection(
            (norm): LayerNorm()
            (dropout): Dropout(p=0.1)
          )
        )
      )
      (1): DecoderLayer(
        (self_attn): MultiHeadedAttention(
          (linears): ModuleList(
            (0): Linear(in_features=278, out_features=278, bias=True)
            (1): Linear(in_features=278, out_features=278, bias=True)
            (2): Linear(in_features=278, out_features=278, bias=True)
            (3): Linear(in_features=278, out_features=278, bias=True)
          )
          (dropout): Dropout(p=0.1)
        )
        (src_attn): MultiHeadedAttention(
          (linears): ModuleList(
            (0): Linear(in_features=278, out_features=278, bias=True)
            (1): Linear(in_features=278, out_features=278, bias=True)
            (2): Linear(in_features=278, out_features=278, bias=True)
            (3): Linear(in_features=278, out_features=278, bias=True)
          )
          (dropout): Dropout(p=0.1)
        )
        (feed_forward): PositionwiseFeedForward(
          (w_1): Linear(in_features=278, out_features=507, bias=True)
          (w_2): Linear(in_features=507, out_features=278, bias=True)
          (dropout): Dropout(p=0.1)
        )
        (sublayer): ModuleList(
          (0): SublayerConnection(
            (norm): LayerNorm()
            (dropout): Dropout(p=0.1)
          )
          (1): SublayerConnection(
            (norm): LayerNorm()
            (dropout): Dropout(p=0.1)
          )
          (2): SublayerConnection(
            (norm): LayerNorm()
            (dropout): Dropout(p=0.1)
          )
        )
      )
      (2): DecoderLayer(
        (self_attn): MultiHeadedAttention(
          (linears): ModuleList(
            (0): Linear(in_features=278, out_features=278, bias=True)
            (1): Linear(in_features=278, out_features=278, bias=True)
            (2): Linear(in_features=278, out_features=278, bias=True)
            (3): Linear(in_features=278, out_features=278, bias=True)
          )
          (dropout): Dropout(p=0.1)
        )
        (src_attn): MultiHeadedAttention(
          (linears): ModuleList(
            (0): Linear(in_features=278, out_features=278, bias=True)
            (1): Linear(in_features=278, out_features=278, bias=True)
            (2): Linear(in_features=278, out_features=278, bias=True)
            (3): Linear(in_features=278, out_features=278, bias=True)
          )
          (dropout): Dropout(p=0.1)
        )
        (feed_forward): PositionwiseFeedForward(
          (w_1): Linear(in_features=278, out_features=507, bias=True)
          (w_2): Linear(in_features=507, out_features=278, bias=True)
          (dropout): Dropout(p=0.1)
        )
        (sublayer): ModuleList(
          (0): SublayerConnection(
            (norm): LayerNorm()
            (dropout): Dropout(p=0.1)
          )
          (1): SublayerConnection(
            (norm): LayerNorm()
            (dropout): Dropout(p=0.1)
          )
          (2): SublayerConnection(
            (norm): LayerNorm()
            (dropout): Dropout(p=0.1)
          )
        )
      )
      (3): DecoderLayer(
        (self_attn): MultiHeadedAttention(
          (linears): ModuleList(
            (0): Linear(in_features=278, out_features=278, bias=True)
            (1): Linear(in_features=278, out_features=278, bias=True)
            (2): Linear(in_features=278, out_features=278, bias=True)
            (3): Linear(in_features=278, out_features=278, bias=True)
          )
          (dropout): Dropout(p=0.1)
        )
        (src_attn): MultiHeadedAttention(
          (linears): ModuleList(
            (0): Linear(in_features=278, out_features=278, bias=True)
            (1): Linear(in_features=278, out_features=278, bias=True)
            (2): Linear(in_features=278, out_features=278, bias=True)
            (3): Linear(in_features=278, out_features=278, bias=True)
          )
          (dropout): Dropout(p=0.1)
        )
        (feed_forward): PositionwiseFeedForward(
          (w_1): Linear(in_features=278, out_features=507, bias=True)
          (w_2): Linear(in_features=507, out_features=278, bias=True)
          (dropout): Dropout(p=0.1)
        )
        (sublayer): ModuleList(
          (0): SublayerConnection(
            (norm): LayerNorm()
            (dropout): Dropout(p=0.1)
          )
          (1): SublayerConnection(
            (norm): LayerNorm()
            (dropout): Dropout(p=0.1)
          )
          (2): SublayerConnection(
            (norm): LayerNorm()
            (dropout): Dropout(p=0.1)
          )
        )
      )
      (4): DecoderLayer(
        (self_attn): MultiHeadedAttention(
          (linears): ModuleList(
            (0): Linear(in_features=278, out_features=278, bias=True)
            (1): Linear(in_features=278, out_features=278, bias=True)
            (2): Linear(in_features=278, out_features=278, bias=True)
            (3): Linear(in_features=278, out_features=278, bias=True)
          )
          (dropout): Dropout(p=0.1)
        )
        (src_attn): MultiHeadedAttention(
          (linears): ModuleList(
            (0): Linear(in_features=278, out_features=278, bias=True)
            (1): Linear(in_features=278, out_features=278, bias=True)
            (2): Linear(in_features=278, out_features=278, bias=True)
            (3): Linear(in_features=278, out_features=278, bias=True)
          )
          (dropout): Dropout(p=0.1)
        )
        (feed_forward): PositionwiseFeedForward(
          (w_1): Linear(in_features=278, out_features=507, bias=True)
          (w_2): Linear(in_features=507, out_features=278, bias=True)
          (dropout): Dropout(p=0.1)
        )
        (sublayer): ModuleList(
          (0): SublayerConnection(
            (norm): LayerNorm()
            (dropout): Dropout(p=0.1)
          )
          (1): SublayerConnection(
            (norm): LayerNorm()
            (dropout): Dropout(p=0.1)
          )
          (2): SublayerConnection(
            (norm): LayerNorm()
            (dropout): Dropout(p=0.1)
          )
        )
      )
    )
    (norm): LayerNorm()
  )
  (decoder_gy): Decoder(
    (layers): ModuleList(
      (0): DecoderLayer(
        (self_attn): MultiHeadedAttention(
          (linears): ModuleList(
            (0): Linear(in_features=278, out_features=278, bias=True)
            (1): Linear(in_features=278, out_features=278, bias=True)
            (2): Linear(in_features=278, out_features=278, bias=True)
            (3): Linear(in_features=278, out_features=278, bias=True)
          )
          (dropout): Dropout(p=0.1)
        )
        (src_attn): MultiHeadedAttention(
          (linears): ModuleList(
            (0): Linear(in_features=278, out_features=278, bias=True)
            (1): Linear(in_features=278, out_features=278, bias=True)
            (2): Linear(in_features=278, out_features=278, bias=True)
            (3): Linear(in_features=278, out_features=278, bias=True)
          )
          (dropout): Dropout(p=0.1)
        )
        (feed_forward): PositionwiseFeedForward(
          (w_1): Linear(in_features=278, out_features=507, bias=True)
          (w_2): Linear(in_features=507, out_features=278, bias=True)
          (dropout): Dropout(p=0.1)
        )
        (sublayer): ModuleList(
          (0): SublayerConnection(
            (norm): LayerNorm()
            (dropout): Dropout(p=0.1)
          )
          (1): SublayerConnection(
            (norm): LayerNorm()
            (dropout): Dropout(p=0.1)
          )
          (2): SublayerConnection(
            (norm): LayerNorm()
            (dropout): Dropout(p=0.1)
          )
        )
      )
      (1): DecoderLayer(
        (self_attn): MultiHeadedAttention(
          (linears): ModuleList(
            (0): Linear(in_features=278, out_features=278, bias=True)
            (1): Linear(in_features=278, out_features=278, bias=True)
            (2): Linear(in_features=278, out_features=278, bias=True)
            (3): Linear(in_features=278, out_features=278, bias=True)
          )
          (dropout): Dropout(p=0.1)
        )
        (src_attn): MultiHeadedAttention(
          (linears): ModuleList(
            (0): Linear(in_features=278, out_features=278, bias=True)
            (1): Linear(in_features=278, out_features=278, bias=True)
            (2): Linear(in_features=278, out_features=278, bias=True)
            (3): Linear(in_features=278, out_features=278, bias=True)
          )
          (dropout): Dropout(p=0.1)
        )
        (feed_forward): PositionwiseFeedForward(
          (w_1): Linear(in_features=278, out_features=507, bias=True)
          (w_2): Linear(in_features=507, out_features=278, bias=True)
          (dropout): Dropout(p=0.1)
        )
        (sublayer): ModuleList(
          (0): SublayerConnection(
            (norm): LayerNorm()
            (dropout): Dropout(p=0.1)
          )
          (1): SublayerConnection(
            (norm): LayerNorm()
            (dropout): Dropout(p=0.1)
          )
          (2): SublayerConnection(
            (norm): LayerNorm()
            (dropout): Dropout(p=0.1)
          )
        )
      )
      (2): DecoderLayer(
        (self_attn): MultiHeadedAttention(
          (linears): ModuleList(
            (0): Linear(in_features=278, out_features=278, bias=True)
            (1): Linear(in_features=278, out_features=278, bias=True)
            (2): Linear(in_features=278, out_features=278, bias=True)
            (3): Linear(in_features=278, out_features=278, bias=True)
          )
          (dropout): Dropout(p=0.1)
        )
        (src_attn): MultiHeadedAttention(
          (linears): ModuleList(
            (0): Linear(in_features=278, out_features=278, bias=True)
            (1): Linear(in_features=278, out_features=278, bias=True)
            (2): Linear(in_features=278, out_features=278, bias=True)
            (3): Linear(in_features=278, out_features=278, bias=True)
          )
          (dropout): Dropout(p=0.1)
        )
        (feed_forward): PositionwiseFeedForward(
          (w_1): Linear(in_features=278, out_features=507, bias=True)
          (w_2): Linear(in_features=507, out_features=278, bias=True)
          (dropout): Dropout(p=0.1)
        )
        (sublayer): ModuleList(
          (0): SublayerConnection(
            (norm): LayerNorm()
            (dropout): Dropout(p=0.1)
          )
          (1): SublayerConnection(
            (norm): LayerNorm()
            (dropout): Dropout(p=0.1)
          )
          (2): SublayerConnection(
            (norm): LayerNorm()
            (dropout): Dropout(p=0.1)
          )
        )
      )
      (3): DecoderLayer(
        (self_attn): MultiHeadedAttention(
          (linears): ModuleList(
            (0): Linear(in_features=278, out_features=278, bias=True)
            (1): Linear(in_features=278, out_features=278, bias=True)
            (2): Linear(in_features=278, out_features=278, bias=True)
            (3): Linear(in_features=278, out_features=278, bias=True)
          )
          (dropout): Dropout(p=0.1)
        )
        (src_attn): MultiHeadedAttention(
          (linears): ModuleList(
            (0): Linear(in_features=278, out_features=278, bias=True)
            (1): Linear(in_features=278, out_features=278, bias=True)
            (2): Linear(in_features=278, out_features=278, bias=True)
            (3): Linear(in_features=278, out_features=278, bias=True)
          )
          (dropout): Dropout(p=0.1)
        )
        (feed_forward): PositionwiseFeedForward(
          (w_1): Linear(in_features=278, out_features=507, bias=True)
          (w_2): Linear(in_features=507, out_features=278, bias=True)
          (dropout): Dropout(p=0.1)
        )
        (sublayer): ModuleList(
          (0): SublayerConnection(
            (norm): LayerNorm()
            (dropout): Dropout(p=0.1)
          )
          (1): SublayerConnection(
            (norm): LayerNorm()
            (dropout): Dropout(p=0.1)
          )
          (2): SublayerConnection(
            (norm): LayerNorm()
            (dropout): Dropout(p=0.1)
          )
        )
      )
      (4): DecoderLayer(
        (self_attn): MultiHeadedAttention(
          (linears): ModuleList(
            (0): Linear(in_features=278, out_features=278, bias=True)
            (1): Linear(in_features=278, out_features=278, bias=True)
            (2): Linear(in_features=278, out_features=278, bias=True)
            (3): Linear(in_features=278, out_features=278, bias=True)
          )
          (dropout): Dropout(p=0.1)
        )
        (src_attn): MultiHeadedAttention(
          (linears): ModuleList(
            (0): Linear(in_features=278, out_features=278, bias=True)
            (1): Linear(in_features=278, out_features=278, bias=True)
            (2): Linear(in_features=278, out_features=278, bias=True)
            (3): Linear(in_features=278, out_features=278, bias=True)
          )
          (dropout): Dropout(p=0.1)
        )
        (feed_forward): PositionwiseFeedForward(
          (w_1): Linear(in_features=278, out_features=507, bias=True)
          (w_2): Linear(in_features=507, out_features=278, bias=True)
          (dropout): Dropout(p=0.1)
        )
        (sublayer): ModuleList(
          (0): SublayerConnection(
            (norm): LayerNorm()
            (dropout): Dropout(p=0.1)
          )
          (1): SublayerConnection(
            (norm): LayerNorm()
            (dropout): Dropout(p=0.1)
          )
          (2): SublayerConnection(
            (norm): LayerNorm()
            (dropout): Dropout(p=0.1)
          )
        )
      )
    )
    (norm): LayerNorm()
  )
  (init_x): Sequential(
    (0): Linear(in_features=278, out_features=507, bias=True)
    (1): LeakyReLU(negative_slope=0.01)
    (2): Linear(in_features=507, out_features=278, bias=True)
  )
  (init_y): Sequential(
    (0): Linear(in_features=278, out_features=507, bias=True)
    (1): LeakyReLU(negative_slope=0.01)
    (2): Linear(in_features=507, out_features=278, bias=True)
  )
  (src_embed): Sequential(
    (0): Embeddings(
      (lut): Embedding(39553, 278)
    )
    (1): PositionalEncoding(
      (dropout): Dropout(p=0.1)
    )
  )
  (trg_embed): Sequential(
    (0): Embeddings(
      (lut): Embedding(39553, 278)
    )
    (1): PositionalEncoding(
      (dropout): Dropout(p=0.1)
    )
  )
  (generator_gx): Generator(
    (proj): Linear(in_features=278, out_features=39553, bias=True)
  )
  (generator_gy): Generator(
    (proj): Linear(in_features=278, out_features=39553, bias=True)
  )
)
Loading Model from models/de-en/10/default_00.e9.pt
Namespace(accum_grad=1, anneal_kl=1, anneal_steps=250000, anneal_temperature=0, batch_size=3200, dataset='iwslt/en-de', dependent_posterior=1, direction='deen', dropout=0.1, encselfmode='soft', encselftemperature=0.0, epochs=50, eta=0.05, fix_model_steps=-1, heads=2, learning_rate=0.001, lr_be
…
